…
background-color: null;
font-style: inherit;">0</span>][<span class="st" style="color: #20794D;
background-color: null;
font-style: inherit;">"generated_text"</span>])</span></code></pre></div>
<div class="cell-output cell-output-stderr">
<pre><code>Setting `pad_token_id` to `eos_token_id`:50256 for open-end generation.
Setting `pad_token_id` to `eos_token_id`:50256 for open-end generation.</code></pre>
</div>
<div class="cell-output cell-output-stdout">
<pre><code>def hello_world():
    print("Hello World")

hello_world()

# 파
Model before:

 CodeGenForCausalLM(
  (transformer): CodeGenModel(
    (wte): Embedding(51200, 1024)
    (drop): Dropout(p=0.0, inplace=False)
    (h): ModuleList(
      (0-19): 20 x CodeGenBlock(
        (ln_1): LayerNorm((1024,), eps=1e-05, elementwise_affine=True)
        (attn): CodeGenAttention(
          (attn_dropout): Dropout(p=0.0, inplace=False)
          (resid_dropout): Dropout(p=0.0, inplace=False)
          (qkv_proj): Linear(in_features=1024, out_features=3072, bias=False)
          (out_proj): Linear(in_features=1024, out_features=1024, bias=False)
        )
        (mlp): CodeGenMLP(
          (fc_in): Linear(in_features=1024, out_features=4096, bias=True)
          (fc_out): Linear(in_features=4096, out_features=1024, bias=True)
          (act): NewGELUActivation()
          (dropout): Dropout(p=0.0, inplace=False)
        )
      )
    )
    (ln_f): LayerNorm((1024,), eps=1e-05, elementwise_affine=True)
  )
  (lm_head): Linear(in_features=1024, out_features=51200, bias=True)
)
Model after:

 CodeGenForCausalLM(
  (transformer): CodeGenModel(
    (wte): Embedding(51200, 1024)
    (drop): Dropout(p=0.0, inplace=False)
    (h): ModuleList(
      (0-19): 20 x CodeGenBlock(
        (ln_1): LayerNorm((1024,), eps=1e-05, elementwise_affine=True)
        (attn): CodeGenAttention(
          (attn_dropout): Dropout(p=0.0, inplace=False)
          (resid_dropout): Dropout(p=0.0, inplace=False)
          (qkv_proj): W8A16LinearLayer()
          (out_proj): W8A16LinearLayer()
        )
        (mlp): CodeGenMLP(
          (fc_in): W8A16LinearLayer()
          (fc_out): W8A16LinearLayer()
          (act): NewGELUActivation()
          (dropout): Dropout(p=0.0, inplace=False)
        )
      )
    )
    (ln_f): LayerNorm((1024,), eps=1e-05, elementwise_affine=True)
  )
  (lm_head): Linear(in_features=1024, out_features=51200, bias=True)
)
def hello_world():
    print("Hello World")

# hello_world()

# def hello_</code></pre>
</div>
</div>
<ul>
<li>Above code snippet modifies the model inplace</li>
<li>Also don’t try to change the lm_head otherwise it will not give the desired results</li>
<li>All the rounding errors can sum up once you start generating a lot of tokens, until may be all of these errors get super large so that it affects the model’s performance</li>
…
</div>
<div class="cell-output cell-output-stdout">
<pre><code>Parameter containing:
tensor(..., device='meta', size=(50272, 768), requires_grad=True)</code></pre>
</div>
</div>
<div id="a5400fe7" class="cell" data-execution_count="14">
<div class="sourceCode cell-code" id="cb21" style="background: #f1f3f5;"><pre class="sourceCode python code-with-copy"><code class="sourceCode python"><span id="cb21-1">model</span></code></pre></div>
<div class="cell-output cell-output-display" data-execution_count="14">
<pre><code>OPTForCausalLM(
  (model): OPTModel(
    (decoder): OPTDecoder(
      (embed_tokens): Embedding(50272, 768, padding_idx=1)
      (embed_positions): OPTLearnedPositionalEmbedding(2050, 768)
      (final_layer_norm): LayerNorm((768,), eps=1e-05, elementwise_affine=True)
      (layers): ModuleList(
        (0-11): 12 x OPTDecoderLayer(
          (self_attn): OPTAttention(
            (k_proj): Linear(in_features=768, out_features=768, bias=True)
            (v_proj): Linear(in_features=768, out_features=768, bias=True)
            (q_proj): Linear(in_features=768, out_features=768, bias=True)
            (out_proj): Linear(in_features=768, out_features=768, bias=True)
          )
          (activation_fn): ReLU()
          (self_attn_layer_norm): LayerNorm((768,), eps=1e-05, elementwise_affine=True)
          (fc1): Linear(in_features=768, out_features=3072, bias=True)
          (fc2): Linear(in_features=3072, out_features=768, bias=True)
          (final_layer_norm): LayerNorm((768,), eps=1e-05, elementwise_affine=True)
        )
      )
    )
  )
  (lm_head): Linear(in_features=768, out_features=50272, bias=False)
)</code></pre>
</div>
</div>
<div id="899f1a2d" class="cell" data-execution_count="15">
<div class="sourceCode cell-code" id="cb23" style="background: #f1f3f5;"><pre class="sourceCode python code-with-copy"><code class="sourceCode python"><span id="cb23-1">replace_linear_with_target(model, W8A16LinearLayer, [<span class="st" style="color: #20794D;
background-color: null;
font-style: inherit;">"lm_head"</span>])</span>
<span id="cb23-2">model</span></code></pre></div>
<div class="cell-output cell-output-display" data-execution_count="15">
<pre><code>OPTForCausalLM(
  (model): OPTModel(
    (decoder): OPTDecoder(
      (embed_tokens): Embedding(50272, 768, padding_idx=1)
      (embed_positions): OPTLearnedPositionalEmbedding(2050, 768)
      (final_layer_norm): LayerNorm((768,), eps=1e-05, elementwise_affine=True)
      (layers): ModuleList(
        (0-11): 12 x OPTDecoderLayer(
          (self_attn): OPTAttention(
            (k_proj): W8A16LinearLayer()
            (v_proj): W8A16LinearLayer()
            (q_proj): W8A16LinearLayer()
            (out_proj): W8A16LinearLayer()
          )
          (activation_fn): ReLU()
          (self_attn_layer_norm): LayerNorm((768,), eps=1e-05, elementwise_affine=True)
          (fc1): W8A16LinearLayer()
          (fc2): W8A16LinearLayer()
          (final_layer_norm): LayerNorm((768,), eps=1e-05, elementwise_affine=True)
        )
      )
    )
  )
  (lm_head): Linear(in_features=768, out_features=50272, bias=False)
)</code></pre>
</div>
</div>
<p><strong>If loading from HF</strong></p>
<p>from huggingface_hub import hf_hub_download</p>
<p>state_dict_cache_path = hf_hub_download( “ybelkada/opt-125m-quantized-dlai”, “quantized_state_dict.pth” )</p>
<div id="62307eec" class="cell" data-execution_count="16">
<div class="sourceCode cell-code" id="cb25" style="background: #f1f3f5;"><pre class="sourceCode python code-with-copy"><code class="sourceCode python"><span id="cb25-1">state_dict <span class="op" style="color: #5E5E5E;
…
