…
rSequenceClassification model from a BertForPreTraining model).\n- This IS NOT expected if you are initializing CodeGenForCausalLM from the checkpoint of a model that you expect to be exactly identical (initializing a BertForSequenceClassification model from a BertForSequenceClassification model).\n\n\n\n\n\n\n\n\n\n\n\n\n\n\n\n\n\n\n\n\n\n\n\nDevice set to use cuda:0\nSetting `pad_token_id` to `eos_token_id`:50256 for open-end generation.\n\n\ndef hello_world():\n    print(\"Hello World\")\n\nhello_world()\n\n# 파\nModel before:\n\n CodeGenForCausalLM(\n  (transformer): CodeGenModel(\n    (wte): Embedding(51200, 1024)\n    (drop): Dropout(p=0.0, inplace=False)\n    (h): ModuleList(\n      (0-19): 20 x CodeGenBlock(\n        (ln_1): LayerNorm((1024,), eps=1e-05, elementwise_affine=True)\n        (attn): CodeGenAttention(\n          (attn_dropout): Dropout(p=0.0, inplace=False)\n          (resid_dropout): Dropout(p=0.0, inplace=False)\n          (qkv_proj): Linear(in_features=1024, out_features=3072, bias=False)\n          (out_proj): Linear(in_features=1024, out_features=1024, bias=False)\n        )\n        (mlp): CodeGenMLP(\n          (fc_in): Linear(in_features=1024, out_features=4096, bias=True)\n          (fc_out): Linear(in_features=4096, out_features=1024, bias=True)\n          (act): NewGELUActivation()\n          (dropout): Dropout(p=0.0, inplace=False)\n        )\n      )\n    )\n    (ln_f): LayerNorm((1024,), eps=1e-05, elementwise_affine=True)\n  )\n  (lm_head): Linear(in_features=1024, out_features=51200, bias=True)\n)\n\n\nSetting `pad_token_id` to `eos_token_id`:50256 for open-end generation.\n\n\nModel after:\n\n CodeGenForCausalLM(\n  (transformer): CodeGenModel(\n    (wte): Embedding(51200, 1024)\n    (drop): Dropout(p=0.0, inplace=False)\n    (h): ModuleList(\n      (0-19): 20 x CodeGenBlock(\n        (ln_1): LayerNorm((1024,), eps=1e-05, elementwise_affine=True)\n        (attn): CodeGenAttention(\n          (attn_dropout): Dropout(p=0.0, inplace=False)\n          (resid_dropout): Dropout(p=0.0, inplace=False)\n          (qkv_proj): W8A16LinearLayer()\n          (out_proj): W8A16LinearLayer()\n        )\n        (mlp): CodeGenMLP(\n          (fc_in): W8A16LinearLayer()\n          (fc_out): W8A16LinearLayer()\n          (act): NewGELUActivation()\n          (dropout): Dropout(p=0.0, inplace=False)\n        )\n      )\n    )\n    (ln_f): LayerNorm((1024,), eps=1e-05, elementwise_affine=True)\n  )\n  (lm_head): Linear(in_features=1024, out_features=51200, bias=True)\n)\ndef hello_world():\n    print(\"Hello World\")\n\n# hello_world()\n\n# def hello_\n\n\n\nAbove code snippet modifies the model inplace\nAlso don’t try to change the lm_head otherwise it will not give the desired results\nAll the rounding errors can sum up once you start generating a lot of tokens, until may be all of these errors get super large
…
“quantized_state_dict.pth”, repo_id=your_repo_id )\n\nimport torch\nfrom transformers import OPTForCausalLM, AutoTokenizer, AutoConfig\n\nmodel_id = \"facebook/opt-125m\"\nconfig = AutoConfig.from_pretrained(model_id)\n\nwith torch.device(\"meta\"):\n  model = OPTForCausalLM(config)\n\ntokenizer = AutoTokenizer.from_pretrained(model_id)\n\nfor param in model.parameters():\n  print(param)\n  break\n\n\n\n\nParameter containing:\ntensor(..., device='meta', size=(50272, 768), requires_grad=True)\n\n\n\nmodel\n\nOPTForCausalLM(\n  (model): OPTModel(\n    (decoder): OPTDecoder(\n      (embed_tokens): Embedding(50272, 768, padding_idx=1)\n      (embed_positions): OPTLearnedPositionalEmbedding(2050, 768)\n      (final_layer_norm): LayerNorm((768,), eps=1e-05, elementwise_affine=True)\n      (layers): ModuleList(\n        (0-11): 12 x OPTDecoderLayer(\n          (self_attn): OPTSdpaAttention(\n            (k_proj): Linear(in_features=768, out_features=768, bias=True)\n            (v_proj): Linear(in_features=768, out_features=768, bias=True)\n            (q_proj): Linear(in_features=768, out_features=768, bias=True)\n            (out_proj): Linear(in_features=768, out_features=768, bias=True)\n          )\n          (activation_fn): ReLU()\n          (self_attn_layer_norm): LayerNorm((768,), eps=1e-05, elementwise_affine=True)\n          (fc1): Linear(in_features=768, out_features=3072, bias=True)\n          (fc2): Linear(in_features=3072, out_features=768, bias=True)\n          (final_layer_norm): LayerNorm((768,), eps=1e-05, elementwise_affine=True)\n        )\n      )\n    )\n  )\n  (lm_head): Linear(in_features=768, out_features=50272, bias=False)\n)\n\n\n\nreplace_linear_with_target(model, W8A16LinearLayer, [\"lm_head\"])\nmodel\n\nOPTForCausalLM(\n  (model): OPTModel(\n    (decoder): OPTDecoder(\n      (embed_tokens): Embedding(50272, 768, padding_idx=1)\n      (embed_positions): OPTLearnedPositionalEmbedding(2050, 768)\n      (final_layer_norm): LayerNorm((768,), eps=1e-05, elementwise_affine=True)\n      (layers): ModuleList(\n        (0-11): 12 x OPTDecoderLayer(\n          (self_attn): OPTSdpaAttention(\n            (k_proj): W8A16LinearLayer()\n            (v_proj): W8A16LinearLayer()\n            (q_proj): W8A16LinearLayer()\n            (out_proj): W8A16LinearLayer()\n          )\n          (activation_fn): ReLU()\n          (self_attn_layer_norm): LayerNorm((768,), eps=1e-05, elementwise_affine=True)\n          (fc1): W8A16LinearLayer()\n          (fc2): W8A16LinearLayer()\n          (final_layer_norm): LayerNorm((768,), eps=1e-05, elementwise_affine=True)\n        )\n      )\n    )\n  )\n  (lm_head): Linear(in_features=768, out_features=50272, bias=False)\n)\n\n\nIf loading from HF\nfrom huggingface_hub import hf_hub_download\nstate_dict_cache_path = hf_hub_download( “ybelkada/opt-125m-quantized-dlai”, “quantized_state_dict.pth” )\n\nstate_dict = torch.load(r\"C:\\wsl\\random\\models\\quantized_state_dict.pth\")\nmodel.load_state_dict(state_dict, strict=True, assign=True)\n\nC:\\Users\\rites\\AppData
…
