…
html}\n<script type=\"application/vnd.jupyter.widget-view+json\">\n{\"model_id\":\"156e8088d05f446e871760bc4fed982c\",\"version_major\":2,\"version_minor\":0,\"quarto_mimetype\":\"application/vnd.jupyter.widget-view+json\"}\n</script>\n```\n:::\n\n::: {.cell-output .cell-output-stderr}\n```\nDevice set to use cuda:0\nSetting `pad_token_id` to `eos_token_id`:50256 for open-end generation.\n```\n:::\n\n::: {.cell-output .cell-output-stdout}\n```\ndef hello_world():\n    print(\"Hello World\")\n\nhello_world()\n\n# 파\nModel before:\n\n CodeGenForCausalLM(\n  (transformer): CodeGenModel(\n    (wte): Embedding(51200, 1024)\n    (drop): Dropout(p=0.0, inplace=False)\n    (h): ModuleList(\n      (0-19): 20 x CodeGenBlock(\n        (ln_1): LayerNorm((1024,), eps=1e-05, elementwise_affine=True)\n        (attn): CodeGenAttention(\n          (attn_dropout): Dropout(p=0.0, inplace=False)\n          (resid_dropout): Dropout(p=0.0, inplace=False)\n          (qkv_proj): Linear(in_features=1024, out_features=3072, bias=False)\n          (out_proj): Linear(in_features=1024, out_features=1024, bias=False)\n        )\n        (mlp): CodeGenMLP(\n          (fc_in): Linear(in_features=1024, out_features=4096, bias=True)\n          (fc_out): Linear(in_features=4096, out_features=1024, bias=True)\n          (act): NewGELUActivation()\n          (dropout): Dropout(p=0.0, inplace=False)\n        )\n      )\n    )\n    (ln_f): LayerNorm((1024,), eps=1e-05, elementwise_affine=True)\n  )\n  (lm_head): Linear(in_features=1024, out_features=51200, bias=True)\n)\n```\n:::\n\n::: {.cell-output .cell-output-stderr}\n```\nSetting `pad_token_id` to `eos_token_id`:50256 for open-end generation.\n```\n:::\n\n::: {.cell-output .cell-output-stdout}\n```\nModel after:\n\n CodeGenForCausalLM(\n  (transformer): CodeGenModel(\n    (wte): Embedding(51200, 1024)\n    (drop): Dropout(p=0.0, inplace=False)\n    (h): ModuleList(\n      (0-19): 20 x CodeGenBlock(\n        (ln_1): LayerNorm((1024,), eps=1e-05, elementwise_affine=True)\n        (attn): CodeGenAttention(\n          (attn_dropout): Dropout(p=0.0, inplace=False)\n          (resid_dropout): Dropout(p=0.0, inplace=False)\n          (qkv_proj): W8A16LinearLayer()\n          (out_proj): W8A16LinearLayer()\n        )\n        (mlp): CodeGenMLP(\n          (fc_in): W8A16LinearLayer()\n          (fc_out): W8A16LinearLayer()\n          (act): NewGELUActivation()\n          (dropout): Dropout(p=0.0, inplace=False)\n        )\n      )\n    )\n    (ln_f): LayerNorm((1024,), eps=1e-05, elementwise_affine=True)\n  )\n  (lm_head): Linear(in_features=1024, out_features=51200, bias=True)\n)\ndef hello_world():\n    print(\"Hello World\")\n\n# hello_world()\n\n# def hello_\n```\n:::\n:::\n\n\n+ Above code snippet modifies the model inplace\n+ Also don't try to change the lm_head otherwise it will not give the desired results\n+ All the rounding errors can sum up once you start generating a lot of tokens, until may be all of these err
…
nd.jupyter.widget-view+json\">\n{\"model_id\":\"8a191b7a6a414be3acd140c579f85bd1\",\"version_major\":2,\"version_minor\":0,\"quarto_mimetype\":\"application/vnd.jupyter.widget-view+json\"}\n</script>\n```\n:::\n\n::: {.cell-output .cell-output-stdout}\n```\nParameter containing:\ntensor(..., device='meta', size=(50272, 768), requires_grad=True)\n```\n:::\n:::\n\n\n::: {#9f4c4cd3 .cell execution_count=14}\n``` {.python .cell-code}\nmodel\n```\n\n::: {.cell-output .cell-output-display execution_count=14}\n```\nOPTForCausalLM(\n  (model): OPTModel(\n    (decoder): OPTDecoder(\n      (embed_tokens): Embedding(50272, 768, padding_idx=1)\n      (embed_positions): OPTLearnedPositionalEmbedding(2050, 768)\n      (final_layer_norm): LayerNorm((768,), eps=1e-05, elementwise_affine=True)\n      (layers): ModuleList(\n        (0-11): 12 x OPTDecoderLayer(\n          (self_attn): OPTSdpaAttention(\n            (k_proj): Linear(in_features=768, out_features=768, bias=True)\n            (v_proj): Linear(in_features=768, out_features=768, bias=True)\n            (q_proj): Linear(in_features=768, out_features=768, bias=True)\n            (out_proj): Linear(in_features=768, out_features=768, bias=True)\n          )\n          (activation_fn): ReLU()\n          (self_attn_layer_norm): LayerNorm((768,), eps=1e-05, elementwise_affine=True)\n          (fc1): Linear(in_features=768, out_features=3072, bias=True)\n          (fc2): Linear(in_features=3072, out_features=768, bias=True)\n          (final_layer_norm): LayerNorm((768,), eps=1e-05, elementwise_affine=True)\n        )\n      )\n    )\n  )\n  (lm_head): Linear(in_features=768, out_features=50272, bias=False)\n)\n```\n:::\n:::\n\n\n::: {#1c02288a .cell execution_count=15}\n``` {.python .cell-code}\nreplace_linear_with_target(model, W8A16LinearLayer, [\"lm_head\"])\nmodel\n```\n\n::: {.cell-output .cell-output-display execution_count=15}\n```\nOPTForCausalLM(\n  (model): OPTModel(\n    (decoder): OPTDecoder(\n      (embed_tokens): Embedding(50272, 768, padding_idx=1)\n      (embed_positions): OPTLearnedPositionalEmbedding(2050, 768)\n      (final_layer_norm): LayerNorm((768,), eps=1e-05, elementwise_affine=True)\n      (layers): ModuleList(\n        (0-11): 12 x OPTDecoderLayer(\n          (self_attn): OPTSdpaAttention(\n            (k_proj): W8A16LinearLayer()\n            (v_proj): W8A16LinearLayer()\n            (q_proj): W8A16LinearLayer()\n            (out_proj): W8A16LinearLayer()\n          )\n          (activation_fn): ReLU()\n          (self_attn_layer_norm): LayerNorm((768,), eps=1e-05, elementwise_affine=True)\n          (fc1): W8A16LinearLayer()\n          (fc2): W8A16LinearLayer()\n          (final_layer_norm): LayerNorm((768,), eps=1e-05, elementwise_affine=True)\n        )\n      )\n    )\n  )\n  (lm_head): Linear(in_features=768, out_features=50272, bias=False)\n)\n```\n:::\n:::\n\n\n**If loading from HF**\n\nfrom huggingface_hub import hf_hub_download\n\nstate_dict_cache_path = hf_hub_download(\n    \"ybelkada/opt-125m-quantized-dlai\",\n    \"quantized_state_dict.pth\"\n)\n\n::: {#0a761540 .cell execution_count=16}\n``` {.python .cell-code}\nstate_dict = torch.load(r\"C:\\wsl\\random\\models\\quantized_s
…
